==================================================
CREATING NEW REGRESSOR MODEL
in_shape: [1, 200, 240, 160]
channels: (16, 32, 64, 128, 256, 512, 1024)
strides: (2, 2, 2, 2, 1, 1, 1)
==================================================
Model created: Regressor(
  (net): Sequential(
    (layer_0): ResidualUnit(
      (conv): Sequential(
        (unit0): Convolution(
          (conv): Conv3d(1, 16, kernel_size=(3, 3, 3), stride=(2, 2, 2), padding=(1, 1, 1))
          (adn): ADN(
            (N): InstanceNorm3d(16, eps=1e-05, momentum=0.1, affine=False, track_running_stats=False)
            (A): PReLU(num_parameters=1)
          )
        )
        (unit1): Convolution(
          (conv): Conv3d(16, 16, kernel_size=(3, 3, 3), stride=(1, 1, 1), padding=(1, 1, 1))
          (adn): ADN(
            (N): InstanceNorm3d(16, eps=1e-05, momentum=0.1, affine=False, track_running_stats=False)
            (A): PReLU(num_parameters=1)
          )
        )
      )
      (residual): Conv3d(1, 16, kernel_size=(3, 3, 3), stride=(2, 2, 2), padding=(1, 1, 1))
    )
    (layer_1): ResidualUnit(
      (conv): Sequential(
        (unit0): Convolution(
          (conv): Conv3d(16, 32, kernel_size=(3, 3, 3), stride=(2, 2, 2), padding=(1, 1, 1))
          (adn): ADN(
            (N): InstanceNorm3d(32, eps=1e-05, momentum=0.1, affine=False, track_running_stats=False)
            (A): PReLU(num_parameters=1)
          )
        )
        (unit1): Convolution(
          (conv): Conv3d(32, 32, kernel_size=(3, 3, 3), stride=(1, 1, 1), padding=(1, 1, 1))
          (adn): ADN(
            (N): InstanceNorm3d(32, eps=1e-05, momentum=0.1, affine=False, track_running_stats=False)
            (A): PReLU(num_parameters=1)
          )
        )
      )
      (residual): Conv3d(16, 32, kernel_size=(3, 3, 3), stride=(2, 2, 2), padding=(1, 1, 1))
    )
    (layer_2): ResidualUnit(
      (conv): Sequential(
        (unit0): Convolution(
          (conv): Conv3d(32, 64, kernel_size=(3, 3, 3), stride=(2, 2, 2), padding=(1, 1, 1))
          (adn): ADN(
            (N): InstanceNorm3d(64, eps=1e-05, momentum=0.1, affine=False, track_running_stats=False)
            (A): PReLU(num_parameters=1)
          )
        )
        (unit1): Convolution(
          (conv): Conv3d(64, 64, kernel_size=(3, 3, 3), stride=(1, 1, 1), padding=(1, 1, 1))
          (adn): ADN(
            (N): InstanceNorm3d(64, eps=1e-05, momentum=0.1, affine=False, track_running_stats=False)
            (A): PReLU(num_parameters=1)
          )
        )
      )
      (residual): Conv3d(32, 64, kernel_size=(3, 3, 3), stride=(2, 2, 2), padding=(1, 1, 1))
    )
    (layer_3): ResidualUnit(
      (conv): Sequential(
        (unit0): Convolution(
          (conv): Conv3d(64, 128, kernel_size=(3, 3, 3), stride=(2, 2, 2), padding=(1, 1, 1))
          (adn): ADN(
            (N): InstanceNorm3d(128, eps=1e-05, momentum=0.1, affine=False, track_running_stats=False)
            (A): PReLU(num_parameters=1)
          )
        )
        (unit1): Convolution(
          (conv): Conv3d(128, 128, kernel_size=(3, 3, 3), stride=(1, 1, 1), padding=(1, 1, 1))
          (adn): ADN(
            (N): InstanceNorm3d(128, eps=1e-05, momentum=0.1, affine=False, track_running_stats=False)
            (A): PReLU(num_parameters=1)
          )
        )
      )
      (residual): Conv3d(64, 128, kernel_size=(3, 3, 3), stride=(2, 2, 2), padding=(1, 1, 1))
    )
    (layer_4): ResidualUnit(
      (conv): Sequential(
        (unit0): Convolution(
          (conv): Conv3d(128, 256, kernel_size=(3, 3, 3), stride=(1, 1, 1), padding=(1, 1, 1))
          (adn): ADN(
            (N): InstanceNorm3d(256, eps=1e-05, momentum=0.1, affine=False, track_running_stats=False)
            (A): PReLU(num_parameters=1)
          )
        )
        (unit1): Convolution(
          (conv): Conv3d(256, 256, kernel_size=(3, 3, 3), stride=(1, 1, 1), padding=(1, 1, 1))
          (adn): ADN(
            (N): InstanceNorm3d(256, eps=1e-05, momentum=0.1, affine=False, track_running_stats=False)
            (A): PReLU(num_parameters=1)
          )
        )
      )
      (residual): Conv3d(128, 256, kernel_size=(1, 1, 1), stride=(1, 1, 1))
    )
    (layer_5): ResidualUnit(
      (conv): Sequential(
        (unit0): Convolution(
          (conv): Conv3d(256, 512, kernel_size=(3, 3, 3), stride=(1, 1, 1), padding=(1, 1, 1))
          (adn): ADN(
            (N): InstanceNorm3d(512, eps=1e-05, momentum=0.1, affine=False, track_running_stats=False)
            (A): PReLU(num_parameters=1)
          )
        )
        (unit1): Convolution(
          (conv): Conv3d(512, 512, kernel_size=(3, 3, 3), stride=(1, 1, 1), padding=(1, 1, 1))
          (adn): ADN(
            (N): InstanceNorm3d(512, eps=1e-05, momentum=0.1, affine=False, track_running_stats=False)
            (A): PReLU(num_parameters=1)
          )
        )
      )
      (residual): Conv3d(256, 512, kernel_size=(1, 1, 1), stride=(1, 1, 1))
    )
    (layer_6): ResidualUnit(
      (conv): Sequential(
        (unit0): Convolution(
          (conv): Conv3d(512, 1024, kernel_size=(3, 3, 3), stride=(1, 1, 1), padding=(1, 1, 1))
          (adn): ADN(
            (N): InstanceNorm3d(1024, eps=1e-05, momentum=0.1, affine=False, track_running_stats=False)
            (A): PReLU(num_parameters=1)
          )
        )
        (unit1): Convolution(
          (conv): Conv3d(1024, 1024, kernel_size=(3, 3, 3), stride=(1, 1, 1), padding=(1, 1, 1))
        )
      )
      (residual): Conv3d(512, 1024, kernel_size=(1, 1, 1), stride=(1, 1, 1))
    )
  )
  (reshape): Reshape()
  (final): Sequential(
    (0): Flatten(start_dim=1, end_dim=-1)
    (1): Linear(in_features=1996800, out_features=1, bias=True)
  )
)
==================================================
CREATING NEW REGRESSOR MODEL
in_shape: [1, 200, 240, 160]
channels: (16, 32, 64, 128, 256, 512, 1024)
strides: (2, 2, 2, 2, 1, 1, 1)
==================================================
Model created: Regressor(
  (net): Sequential(
    (layer_0): ResidualUnit(
      (conv): Sequential(
        (unit0): Convolution(
          (conv): Conv3d(1, 16, kernel_size=(3, 3, 3), stride=(2, 2, 2), padding=(1, 1, 1))
          (adn): ADN(
            (N): InstanceNorm3d(16, eps=1e-05, momentum=0.1, affine=False, track_running_stats=False)
            (A): PReLU(num_parameters=1)
          )
        )
        (unit1): Convolution(
          (conv): Conv3d(16, 16, kernel_size=(3, 3, 3), stride=(1, 1, 1), padding=(1, 1, 1))
          (adn): ADN(
            (N): InstanceNorm3d(16, eps=1e-05, momentum=0.1, affine=False, track_running_stats=False)
            (A): PReLU(num_parameters=1)
          )
        )
      )
      (residual): Conv3d(1, 16, kernel_size=(3, 3, 3), stride=(2, 2, 2), padding=(1, 1, 1))
    )
    (layer_1): ResidualUnit(
      (conv): Sequential(
        (unit0): Convolution(
          (conv): Conv3d(16, 32, kernel_size=(3, 3, 3), stride=(2, 2, 2), padding=(1, 1, 1))
          (adn): ADN(
            (N): InstanceNorm3d(32, eps=1e-05, momentum=0.1, affine=False, track_running_stats=False)
            (A): PReLU(num_parameters=1)
          )
        )
        (unit1): Convolution(
          (conv): Conv3d(32, 32, kernel_size=(3, 3, 3), stride=(1, 1, 1), padding=(1, 1, 1))
          (adn): ADN(
            (N): InstanceNorm3d(32, eps=1e-05, momentum=0.1, affine=False, track_running_stats=False)
            (A): PReLU(num_parameters=1)
          )
        )
      )
      (residual): Conv3d(16, 32, kernel_size=(3, 3, 3), stride=(2, 2, 2), padding=(1, 1, 1))
    )
    (layer_2): ResidualUnit(
      (conv): Sequential(
        (unit0): Convolution(
          (conv): Conv3d(32, 64, kernel_size=(3, 3, 3), stride=(2, 2, 2), padding=(1, 1, 1))
          (adn): ADN(
            (N): InstanceNorm3d(64, eps=1e-05, momentum=0.1, affine=False, track_running_stats=False)
            (A): PReLU(num_parameters=1)
          )
        )
        (unit1): Convolution(
          (conv): Conv3d(64, 64, kernel_size=(3, 3, 3), stride=(1, 1, 1), padding=(1, 1, 1))
          (adn): ADN(
            (N): InstanceNorm3d(64, eps=1e-05, momentum=0.1, affine=False, track_running_stats=False)
            (A): PReLU(num_parameters=1)
          )
        )
      )
      (residual): Conv3d(32, 64, kernel_size=(3, 3, 3), stride=(2, 2, 2), padding=(1, 1, 1))
    )
    (layer_3): ResidualUnit(
      (conv): Sequential(
        (unit0): Convolution(
          (conv): Conv3d(64, 128, kernel_size=(3, 3, 3), stride=(2, 2, 2), padding=(1, 1, 1))
          (adn): ADN(
            (N): InstanceNorm3d(128, eps=1e-05, momentum=0.1, affine=False, track_running_stats=False)
            (A): PReLU(num_parameters=1)
          )
        )
        (unit1): Convolution(
          (conv): Conv3d(128, 128, kernel_size=(3, 3, 3), stride=(1, 1, 1), padding=(1, 1, 1))
          (adn): ADN(
            (N): InstanceNorm3d(128, eps=1e-05, momentum=0.1, affine=False, track_running_stats=False)
            (A): PReLU(num_parameters=1)
          )
        )
      )
      (residual): Conv3d(64, 128, kernel_size=(3, 3, 3), stride=(2, 2, 2), padding=(1, 1, 1))
    )
    (layer_4): ResidualUnit(
      (conv): Sequential(
        (unit0): Convolution(
          (conv): Conv3d(128, 256, kernel_size=(3, 3, 3), stride=(1, 1, 1), padding=(1, 1, 1))
          (adn): ADN(
            (N): InstanceNorm3d(256, eps=1e-05, momentum=0.1, affine=False, track_running_stats=False)
            (A): PReLU(num_parameters=1)
          )
        )
        (unit1): Convolution(
          (conv): Conv3d(256, 256, kernel_size=(3, 3, 3), stride=(1, 1, 1), padding=(1, 1, 1))
          (adn): ADN(
            (N): InstanceNorm3d(256, eps=1e-05, momentum=0.1, affine=False, track_running_stats=False)
            (A): PReLU(num_parameters=1)
          )
        )
      )
      (residual): Conv3d(128, 256, kernel_size=(1, 1, 1), stride=(1, 1, 1))
    )
    (layer_5): ResidualUnit(
      (conv): Sequential(
        (unit0): Convolution(
          (conv): Conv3d(256, 512, kernel_size=(3, 3, 3), stride=(1, 1, 1), padding=(1, 1, 1))
          (adn): ADN(
            (N): InstanceNorm3d(512, eps=1e-05, momentum=0.1, affine=False, track_running_stats=False)
            (A): PReLU(num_parameters=1)
          )
        )
        (unit1): Convolution(
          (conv): Conv3d(512, 512, kernel_size=(3, 3, 3), stride=(1, 1, 1), padding=(1, 1, 1))
          (adn): ADN(
            (N): InstanceNorm3d(512, eps=1e-05, momentum=0.1, affine=False, track_running_stats=False)
            (A): PReLU(num_parameters=1)
          )
        )
      )
      (residual): Conv3d(256, 512, kernel_size=(1, 1, 1), stride=(1, 1, 1))
    )
    (layer_6): ResidualUnit(
      (conv): Sequential(
        (unit0): Convolution(
          (conv): Conv3d(512, 1024, kernel_size=(3, 3, 3), stride=(1, 1, 1), padding=(1, 1, 1))
          (adn): ADN(
            (N): InstanceNorm3d(1024, eps=1e-05, momentum=0.1, affine=False, track_running_stats=False)
            (A): PReLU(num_parameters=1)
          )
        )
        (unit1): Convolution(
          (conv): Conv3d(1024, 1024, kernel_size=(3, 3, 3), stride=(1, 1, 1), padding=(1, 1, 1))
        )
      )
      (residual): Conv3d(512, 1024, kernel_size=(1, 1, 1), stride=(1, 1, 1))
    )
  )
  (reshape): Reshape()
  (final): Sequential(
    (0): Flatten(start_dim=1, end_dim=-1)
    (1): Linear(in_features=1996800, out_features=1, bias=True)
  )
)
